…
          "base_uri": "https://localhost:8080/"
        },
        "id": "91lKvcRjjo1D",
        "outputId": "1c8b9510-8b3d-41fa-f4c8-b51cb388b498"
      },
      "execution_count": null,
      "outputs": [
        {
          "output_type": "stream",
          "name": "stdout",
          "text": [
            "Model: \"sequential\"\n",
            "_________________________________________________________________\n",
            " Layer (type)                Output Shape              Param #   \n",
            "=================================================================\n",
            " conv2d (Conv2D)             (None, 220, 220, 32)      2432      \n",
            "                                                                 \n",
            " activation (Activation)     (None, 220, 220, 32)      0         \n",
            "                                                                 \n",
            " conv2d_1 (Conv2D)           (None, 218, 218, 32)      9248      \n",
            "                                                                 \n",
            " activation_1 (Activation)   (None, 218, 218, 32)      0         \n",
            "                                                                 \n",
            " max_pooling2d (MaxPooling2D  (None, 109, 109, 32)     0         \n",
            " )                                                               \n",
            "                                                                 \n",
            " dropout (Dropout)           (None, 109, 109, 32)      0         \n",
            "                                                                 \n",
            " conv2d_2 (Conv2D)           (None, 107, 107, 64)      18496     \n",
            "                                                                 \n",
            " activation_2 (Activation)   (None, 107, 107, 64)      0         \n",
            "                                                                 \n",
            " conv2d_3 (Conv2D)           (None, 105, 105, 64)      36928     \n",
            "                                                                 \n",
            " activation_3 (Activation)   (None, 105, 105, 64)      0         \n",
            "                                                                 \n",
            " max_pooling2d_1 (MaxPooling  (None, 52, 52, 64)       0         \n",
            " 2D)                                                             \n",
            "                                                                 \n",
            " dropout_1 (Dropout)         (None, 52, 52, 64)        0         \n",
            "                                                                 \n",
            " conv2d_4 (Conv2D)           (None, 50, 50, 200)       115400    \n",
            "                                                                 \n",
            " activation_4 (Activation)   (None, 50, 50, 200)       0         \n",
            "                                                                 \n",
            " max_pooling2d_2 (MaxPooling  (None, 25, 25, 200)      0         \n",
            " 2D)                                                             \n",
            "                                                                 \n",
            " dropout_2 (Dropout)         (None, 25, 25, 200)       0         \n",
            "                                                                 \n",
            " conv2d_5 (Conv2D)           (None, 23, 23, 128)       230528    \n",
            "                                                                 \n",
            " activation_5 (Activation)   (None, 23, 23, 128)       0         \n",
            "                                                                 \n",
            " max_pooling2d_3 (MaxPooling  (None, 11, 11, 128)      0         \n",
            " 2D)                                                             \n",
            "                                                                 \n",
            " dropout_3 (Dropout)         (None, 11, 11, 128)       0         \n",
            "                                                                 \n",
            " flatten (Flatten)           (None, 15488)             0         \n",
            "                                                                 \n",
            " dropout_4 (Dropout)         (None, 15488)             0         \n",
            "                                                                 \n",
            " dense (Dense)               (None, 64)                991296    \n",
            "                                                                 \n",
            " dense_1 (Dense)             (None, 8)                 520       \n",
            "                                                                 \n",
            "=================================================================\n",
            "Total params: 1,404,848\n",
            "Trainable params: 1,404,848\n",
            "Non-trainable params: 0\n",
            "_________________________________________________________________\n"
          ]
        }
…
